saved_models/OriginalMNISTClassifier.pth (torch, 903151 bytes, 8 tensors)

conv1.weight f4 [32, 1, 3, 3]
000000 30 73 ca 3e 7c 8c 07 3e 30 40 e3 3e 63 58 ea bc
       0.39541006 0.13237184 0.4438491 -0.0286066
000010 a3 94 54 3d 06 16 36 be 0b 4b ae be 54 dc e4 be
       0.051899564 -0.17781839 -0.34041628 -0.44699347
000020 4d 86 20 be ea cc 3f be 24 52 f4 3d 3e 83 2b 3e
       -0.15676232 -0.18730512 0.119297296 0.16749284
000030 0e b7 0a 3e ce 16 b4 3e 53 ee 65 be 20 48 29 be
       0.13546392 0.3517365 -0.22454195 -0.1653142
000040 5b 4d 47 3e 31 04 c7 be 62 73 55 be 3b ea 3a be
       0.19463103 -0.38870385 -0.20844796 -0.18253414
000050 8b ee bd 3d c9 40 80 be 59 bf ef bc c7 78 26 3e
       0.09274014 -0.25049427 -0.029266046 0.1625701
000060 4d 28 ed bd 6f 79 bf 3d 12 07 b0 3e 4f e9 97 3e
       -0.115799524 0.093493335 0.34380394 0.29670188
000070 f0 1f a3 3e a6 af f1 be 0c d8 00 be 60 01 14 3f
       0.31860304 -0.47204322 -0.12582415 0.578146
000080 7c 54 9b 3d 18 66 ec be c2 ee a0 be bd be 88 3e
       0.075844735 -0.4617164 -0.31432158 0.26708022
000090 43 31 2f be 81 07 5b be 8e 1f 10 bd 30 5b a2 be
       -0.17108636 -0.21389581 -0.035186343 -0.31710196
0000a0 57 a6 9d bd de b2 23 be bd 70 c8 bd 04 50 d3 bd
       -0.076977424 -0.15986201 -0.09787128 -0.10317996
0000b0 87 c1 80 bd e3 8e 93 3e c9 86 2a 3c de 87 96 be
       -0.062869124 0.2881995 0.010408112 -0.29400533
0000c0 68 1a a0 3e 6e fa a0 be d8 10 11 3e d2 a9 f3 3d
       0.31270146 -0.31441063 0.14166582 0.11897625
0000d0 ac 77 e8 bd 45 0e cb bb 3f e6 53 3e e0 e2 37 3e
       -0.113509506 -0.0061967694 0.206933 0.1795764
0000e0 62 73 84 be 79 b2 3d 3e e8 7d 4d bd a4 f8 42 be
       -0.2586928 0.18525113 -0.0501689 -0.19040161
0000f0 d2 dd 6c be f1 8e 2b be 6e 84 16 3e fb 91 e3 3e
       -0.23131493 -0.16753747 0.14698955 0.44447312
000100 97 15 b1 be 84 ae aa bd dd 99 9c be 96 fb 35 3e
       -0.34586784 -0.083340675 -0.30586138 0.17771754
000110 74 d1 98 bc bd bb 68 bd e1 c1 d2 bc ea a2 a0 3e
       -0.018654563 -0.056819666 -0.025727214 0.31374294
000120 22 9a 05 3d d5 1a 21 3d 17 dc 0b bd a1 f2 cb bc
       0.032617696 0.03933223 -0.03414544 -0.024895968
000130 e3 c2 63 3c 95 5e 0e 3d 44 46 5b bd ca 9a d4 bc
       0.013901445 0.03475817 -0.053533807 -0.025952715
000140 bf fa 81 bd d2 e0 d1 be 27 66 e0 3e 7e 9d b5 be
       -0.06346654 -0.40991837 0.43827936 -0.3547172
000150 f8 1f 47 3e 6a a2 3f 3e 82 f4 f5 bd e3 ac f8 be
       0.19445789 0.187143 -0.12009527 -0.48569402
000160 57 10 86 3e b0 c9 23 3b 67 ef 09 bc b2 ea 8e bd
       0.2618434 0.0024992041 -0.008418894 -0.06978358
000170 50 86 8c be 5a fa 45 be c3 8e eb bd 6b 06 69 3e
       -0.27446222 -0.19333783 -0.11501839 0.22756355
000180 1f 90 ae 3d 97 9e 97 3c ab 6a bc 3d ab 1d 75 3c
       0.08523583 0.018508239 0.09200033 0.014960687
000190 39 aa 27 be 67 1f 56 3e 8f e2 5e bd 55 55 05 3d
       -0.16373529 0.20910417 -0.05441528 0.032552082
0001a0 f2 70 8b 3c 71 a5 98 3d a3 16 a1 bd 50 07 12 bd
       0.01702163 0.074534304 -0.07865646 -0.035651505
0001b0 53 17 a0 3e 29 70 4f be b7 22 4d bd a3 78 c2 be
       0.31267795 -0.2025763 -0.050081935 -0.37982664
0001c0 50 2b 85 3e 98 ce 9f bc 67 5a 20 3e 82 cf 0f 3d
       0.26009607 -0.019507691 0.15659486 0.035110004
0001d0 52 a6 ad bd 9b 69 f2 3e 75 58 e9 be 49 10 53 3d
       -0.08478989 0.47346196 -0.455753 0.051529203
0001e0 e9 87 35 bf 67 81 9c be a4 ed 4f 3e d3 0c 06 3f
       -0.7091051 -0.30567476 0.20305496 0.5236332
0001f0 e2 5d cb 3e 86 ef 10 be f4 cd 19 3e e1 3f d9 3e
       0.39720064 -0.14153871 0.15019971 0.42431548
000200 b6 1e ee 3e 4e ee 9a be 91 ef 81 bd ca 97 64 3e
       0.46507806 -0.30259937 -0.06344522 0.22323528
000210 ac 7f 95 be 32 e5 1d bf 86 a7 d4 bb 8f 08 4f 3e
       -0.29198968 -0.6167785 -0.006489697 0.20218109
000220 20 ef d8 3d 3f 8b 54 bc d0 5c d7 3e 04 61 0b 3d
       0.105924845 -0.012972652 0.42062998 0.03402807
000230 eb c4 c8 be 4e 77 1c 3e 68 95 97 be 5d a5 c7 be
       -0.39212736 0.15279886 -0.29606175 -0.3899335
000240 57 3d 1f 3e f1 63 1b be 9e d0 b7 3d d4 3e 15 bd
       0.15550743 -0.15174843 0.089753374 -0.03643687
000250 1f b7 c9 3d 39 bd 6d bd fa 2b 16 3d 0c 45 e7 bc
       0.09849381 -0.058041785 0.036663033 -0.028231166
000260 ef 8a 1c 3d 2d a3 97 bd 83 c0 9f 3e 6e da a5 bd
       0.038218435 -0.0740417 0.31201562 -0.08098303
000270 37 9c 07 b8 1f 43 f1 3b 76 94 ed be 3d ab 37 3e
       -3.2331995e-05 0.007362738 -0.4640233 0.17936416
000280 0b 86 ee 3e 44 62 1f be eb d4 77 be 88 be ac be
       0.46586642 -0.15564829 -0.24202316 -0.33739114
000290 d3 24 82 3c bb 77 04 3e 87 f1 3c 3e 68 97 0a 3f
       0.0158867 0.12936299 0.1845151 0.5413728
0002a0 9d f8 e9 bd 6b 21 1e bc 89 e6 23 bf 99 c6 01 be
       -0.11424372 -0.009651522 -0.64023644 -0.12673415
0002b0 87 e8 77 be 7d ea fe 3d 76 c6 8b be f7 a1 2f 3e
       -0.24209796 0.12447069 -0.2729985 0.17151628
0002c0 cf 64 45 3e d5 95 97 3e 9b eb 8f 3d 17 4c a3 be
       0.19276737 0.296065 0.0702736 -0.3189399
0002d0 72 81 03 3e b2 43 d5 bd 6f c4 32 bd 82 35 84 bd
       0.12842348 -0.104133025 -0.043644365 -0.06455518
0002e0 06 bd b3 3c be e4 46 3e a2 c7 8b 3d 85 33 e0 bc
       0.02194072 0.19423196 0.06825186 -0.027368316
0002f0 6b e8 2a be 65 a8 c8 be 43 2d d1 3b 17 6e 42 bc
       -0.16690223 -0.39190975 0.0063835694 -0.011867068
000300 5b 11 68 3c c6 7a 23 be df 92 1e 3f b8 11 8c be
       0.014164294 -0.15964803 0.6194286 -0.27357268
000310 fe e0 fc be d2 1c d6 3e 87 bc c8 3e 0a 9a c3 bd
       -0.49390405 0.41818863 0.39206335 -0.09550865
000320 c8 a0 e7 be ae 8d 80 3e cc 08 c9 be 06 fa 26 3e
       -0.45239854 0.25108093 -0.39264524 0.16306314
000330 1b c0 d7 3e 77 f0 40 3e e2 da cf 3e 92 95 5a 3e
       0.42138752 0.1884173 0.40596682 0.21346119
000340 0c ac 07 bf ca 1d c3 be 63 3b b3 3e 65 92 9a 3e
       -0.529969 -0.38108665 0.35006246 0.30189815
000350 39 39 b2 be 70 bc 7c 3d 45 b0 76 3e 74 53 b9 3e
       -0.34809282 0.061703146 0.24090679 0.36196482
000360 8c 47 86 be 84 d7 b6 bd 53 4f b5 3e 33 db bc 3c
       -0.2622646 -0.08927825 0.35412082 0.023053741
000370 9d 1e 3e 3e 59 39 a8 3d 89 ff 28 3d ba 75 0c 3e
       0.18566366 0.08214063 0.041259322 0.13716784
000380 05 d5 ae bc cb c5 a9 3e 5d ca 97 3e 48 dc e7 3d
       -0.02134181 0.33158717 0.29646578 0.11321312
000390 10 c4 9c be 34 88 cd 3c 21 b5 a4 be 27 a2 6a be
       -0.30618334 0.02508936 -0.3216944 -0.22913419
0003a0 f1 c7 d1 be 91 a0 53 be 21 ec 60 bd 7c c5 d6 be
       -0.40972856 -0.2066672 -0.05491269 -0.41947544
0003b0 b7 4f 18 3e 8c a1 a2 3e 18 40 29 3e 11 ae 18 3e
       0.14874159 0.31763875 0.16528356 0.14910151
0003c0 3e 5f c6 be 9a ff ad 3e 8c 2b 35 be ed bc 12 bd
       -0.3874454 0.3398407 -0.17692393 -0.035824705
0003d0 3a 1c b0 be 75 b8 f3 bd e2 4b fa 3d 0b 64 a9 bd
       -0.34396535 -0.11900417 0.12221505 -0.08271035
0003e0 fc 1d e3 bd 58 b8 08 3f 6b 19 eb be 7b bd 42 bc
       -0.110897034 0.53406286 -0.4591783 -0.011885996
0003f0 25 f7 ec bd 3f 92 22 be 24 4b 84 bd 8c ee 14 bf
       -0.115705766 -0.15876101 -0.064596444 -0.58176494

conv1.bias f4 [32]
000000 15 4d 55 be bb 35 eb be 9e 9a e2 be d7 23 e1 be
       -0.20830186 -0.4593943 -0.4425859 -0.43972656
000010 01 39 e7 be 41 85 bb be ed e3 49 bf e4 09 d1 be
       -0.45160678 -0.36625102 -0.7886341 -0.40827858
000020 2b 97 96 be 8b e6 04 bf 18 6e c2 be c3 6c 11 bf
       -0.29412207 -0.5191428 -0.3797462 -0.5680658
000030 77 8e 10 bf 26 fe 9e be 7c db af be 4b ef 03 bf
       -0.56467384 -0.31053275 -0.3434714 -0.5153701
000040 25 c0 ef be 9b 33 96 be 86 d0 08 bf e2 93 ed be
       -0.46826282 -0.29336247 -0.5344318 -0.46401888
000050 f1 3a 23 bf 5e 4d 07 bf c9 42 02 bf 3c 79 d6 be
       -0.6376181 -0.5285243 -0.50883156 -0.4188937
000060 fe bf d7 be d4 34 ff be 5a da df be f4 6e 29 bf
       -0.42138666 -0.49844992 -0.43721277 -0.66184926
000070 08 ae b0 be fd 18 f6 be d3 0a ee be 52 00 9d be
       -0.34507775 -0.4806594 -0.46492633 -0.30664307

conv2.weight f4 [64, 32, 3, 3]
000000 ea a5 27 3e 65 59 58 3d b6 a5 2a 3e 1a 3d 21 be
       0.16371885 0.05281963 0.16664776 -0.15745965
000010 d6 6a 5b bf 07 25 ae be af 51 94 3e 92 78 17 bf
       -0.85709894 -0.34012625 0.2896857 -0.5916835
000020 75 6c a7 be 09 60 f5 bd f4 fe 40 3d 71 b1 30 3e
       -0.32699934 -0.11981208 0.047118142 0.17255189
000030 59 c6 07 bf 79 bb 49 bf 25 a6 58 be 78 31 db 3d
       -0.5303703 -0.78801686 -0.21157129 0.10702795
000040 67 34 9d be 8c f3 5a bf ef 89 0c bf 9f 67 b5 be
       -0.30704042 -0.85527873 -0.5489797 -0.3543062
000050 79 04 10 3e 88 15 ca 3d 39 6c 97 bf f1 cb 83 be
       0.14064206 0.09867388 -1.1829902 -0.25741532
000060 42 73 2f be ef e0 3a bf 23 1f 67 bf b0 19 0b 3e
       -0.17133811 -0.7299947 -0.90281886 0.13584018
000070 57 52 b7 bd 8b bb 70 3e 86 f1 18 be c7 86 6b be
       -0.08951252 0.23509042 -0.14935884 -0.23000632
000080 61 9c 04 be 87 26 82 3e 02 22 85 3d 49 b1 3f bf
       -0.12950279 0.2542002 0.06500627 -0.7487989
000090 66 d9 31 3e f8 c4 33 3d 69 9e 51 3d c0 54 3e 3e
       0.17368087 0.043889016 0.051176462 0.18587017
0000a0 ce 86 bd bd c5 25 0a 3c 19 05 39 be ad 9b b7 bd
       -0.092542276 0.0084318565 -0.18068351 -0.0896524
0000b0 28 70 91 3d b3 8e 26 be 65 2d d2 be f3 0e dd bd
       0.0710147 -0.16265373 -0.41050258 -0.10793867
0000c0 14 c4 2d 3d 4a c8 74 be d1 50 5b be 38 f1 dc 3e
       0.042423323 -0.23904529 -0.21417548 0.43152785
0000d0 fb 5b 43 3e 69 80 c7 3e 31 67 71 3e 67 51 4f bd
       0.19078057 0.38965157 0.2357452 -0.05061474
0000e0 f1 0a 99 3e bd 1b e6 bd 1d 12 4d be 86 66 da be
       0.2989116 -0.112357594 -0.20026441 -0.42656344
0000f0 03 6b ee 3d 7e 75 ce be 48 7c de be f0 5f 93 3d
       0.116415046 -0.40324014 -0.43454194 0.07196033
000100 0e 82 7b 3e 56 06 1e be fb d2 7c 3e 73 f6 e4 be
       0.2456133 -0.15432104 0.24689858 -0.44719276
000110 86 51 55 bf 6d d2 0f 3e c6 c8 3d 3e 84 71 11 bf
       -0.8332752 0.14045115 0.1853362 -0.56813836
000120 3a f3 90 3c e9 fb 3a ba d1 6f 1b bd ba 4a 26 be
       0.017694104 -0.00071328745 -0.037948433 -0.16239443
000130 d8 50 c8 bc 07 3f 2d 3c 6d e8 d7 bd 46 b2 61 3a
       -0.024452612 0.010574109 -0.105423786 0.00086096337
000140 05 d4 e2 3c 31 42 a1 bf f3 ef 94 be 84 02 16 be
       0.02768899 -1.2598325 -0.29089317 -0.14649397
000150 ba a8 5b 3e d5 c4 16 bf e6 10 a4 bd 9b b0 30 3e
       0.21451083 -0.5889409 -0.080110356 0.1725487
000160 a2 6d 7d 3e 26 47 6a bf ce e2 08 be a7 39 2e bd
       0.24748853 -0.91514814 -0.13367769 -0.04253545
000170 b2 fb 9a bc 09 22 07 be 4f 0c 5d be 6e e5 04 bf
       -0.018918846 -0.13196577 -0.21586727 -0.5191258
000180 9f 96 53 be f2 63 73 be 1e 4d 31 bf f5 39 04 be
       -0.20662926 -0.23768595 -0.69258296 -0.12912734
000190 f1 03 a0 bb 85 e6 27 3e 59 83 95 3e f5 2a 48 be
       -0.0048832824 0.1639653 0.29201773 -0.19547637
0001a0 9b bf 77 be a2 53 cd 3d e5 67 12 3e 82 55 2d be
       -0.24194185 0.10025717 0.14297445 -0.1692715
0001b0 47 79 85 3e ee 62 96 3e 1e 25 c7 3e b1 dc da be
       0.2606909 0.29372352 0.38895506 -0.427465
0001c0 3e 24 96 be c1 69 fc bc 2c 6d c1 3e 4b c9 67 3e
       -0.29324526 -0.030812146 0.37778604 0.22635381
0001d0 58 e3 f8 bd 8d e8 5b 3e 69 7f 2f 3e fe 71 48 bf
       -0.121527374 0.2147543 0.17138447 -0.7829894
0001e0 6f 88 f9 3e 05 af 8c bd 66 95 3e bf c5 aa 0b bd
       0.48736903 -0.0686932 -0.74446714 -0.034098405
0001f0 51 15 f8 bd f8 07 02 bf 65 37 2b 3e e3 bc 0f 3d
       -0.12113441 -0.5079341 0.1672035 0.035092246
000200 9d c4 6f 3e 2b 6f 55 be b4 db 5b bf 92 6f 89 be
       0.23414846 -0.20843188 -0.85882115 -0.26842934
000210 a3 f9 1c 3e ac 78 6d be 51 85 4a be 00 07 e8 bd
       0.15329604 -0.23190564 -0.19777419 -0.1132946
000220 00 cd 86 be 35 b6 4f 3e 58 84 72 3d 7e 3f 4b be
       -0.26328278 0.2028435 0.059208244 -0.19848439
000230 b6 a1 11 bd 12 86 ac 3e dd 09 8d 3e b4 ed 0b 3f
       -0.03555461 0.33696038 0.27546588 0.5465958
000240 4f 98 56 3e a7 0d 1e be 64 a7 06 be c7 bf 8e 3c
       0.20956539 -0.15434895 -0.13149792 0.017425431
000250 f0 85 8e bd c5 2b c0 bd 55 f9 62 3d 4c 57 f2 bd
       -0.0695914 -0.093833484 0.055413563 -0.11833057
000260 53 c2 c1 3d 77 da 28 be 31 53 8e 3b f9 65 ec 3c
       0.094608925 -0.16489588 0.0043434133 0.028857218
000270 99 76 d3 3c 35 b1 8c 3d fc 91 29 bf 1b 52 1f 3c
       0.025813388 0.06869737 -0.6623838 0.009724165
000280 4a 1f a1 3e b0 45 c3 bd 2a 74 b0 be 31 be c5 be
       0.31469184 -0.09534776 -0.34463626 -0.38621667
000290 3d 58 97 be 4c a8 18 3e 87 bb 2f be 31 14 d7 be
       -0.29559508 0.1490795 -0.1716138 -0.42007592
0002a0 65 6d 35 3d b4 7a 03 be a5 0c 22 bf 69 ab de bd
       0.04429378 -0.12839776 -0.63300544 -0.10872538
0002b0 2c c6 8f 3d 20 6b b2 be 32 7f 92 bd 6d 7f 4e be
       0.0702022 -0.34847355 -0.07153167 -0.20165797
0002c0 81 05 7e be 2b 92 42 3e 4f 45 da be 78 17 36 bf
       -0.24806787 0.19001071 -0.42631003 -0.7112956
0002d0 87 2f 45 bd 4c 16 e4 be 90 f4 73 3d 99 7e 21 be
       -0.04814103 -0.4454826 0.059559405 -0.1577095
0002e0 02 2b 47 3d 6e 3b 90 bd 0c 03 89 3c aa b9 17 3e
       0.048625 -0.07042585 0.016725086 0.14816919
0002f0 a9 b5 a6 be e9 1e 0f bf 74 c5 86 be d5 2a 78 3d
       -0.3256047 -0.5590654 -0.2632252 0.060587723
000300 12 88 00 be fc c7 2d bf 3e 27 79 be 0d 52 6c 3e
       -0.12551907 -0.67883277 -0.24331376 0.23078175
000310 94 5e 27 be 3c 52 0e bf 73 ed 60 3d a7 86 27 bf
       -0.16344672 -0.5559423 0.05491395 -0.6543984
000320 ed 0e ad be 21 27 27 3e 4b 24 e3 bd fa dc 27 bf
       -0.3380045 0.1632352 -0.11090907 -0.6557156
000330 00 14 1e 3e d6 14 de 3d 07 57 8b be a4 97 91 3b
       0.15437317 0.10843818 -0.27214834 0.004443126
000340 ed 6b cb bd f3 9d c5 be 4f 89 ec 3e 75 9c 43 3d
       -0.099326946 -0.38597068 0.46198508 0.04775663
000350 4d a1 48 bf 2c 4b 72 3e c6 41 c3 3d a1 60 2e be
       -0.78371125 0.23661488 0.0953403 -0.17029049
000360 51 d8 44 be f3 f4 9c be 8d 89 29 bd c2 20 26 be
       -0.19223143 -0.3065563 -0.041390944 -0.16223434
000370 99 af de be 30 bb 7e bd 71 e3 f6 3d 0c e7 02 bf
       -0.43493345 -0.062190235 0.120551 -0.511338
000380 bc 91 36 bf 06 e9 87 3e f5 da fa b9 cc 5b c7 3d
       -0.71316123 0.2654497 -0.00047846852 0.09734306
000390 12 9e 0c be 09 52 62 be a7 eb 29 bd d7 9d 13 3d
       -0.13732174 -0.22101606 -0.0414845 0.0360392
0003a0 69 a7 3f be ae bc ae bd f2 6a f1 be 4c 10 b1 be
       -0.18716206 -0.085320815 -0.47151905 -0.34582746
0003b0 18 63 8c be ac db bd 3e 8a c2 3c bf aa d0 20 be
       -0.27419353 0.3708166 -0.73734343 -0.15704599
0003c0 7d b4 58 3e f8 51 f9 be 81 c6 1d bf 96 2b 64 be
       0.21162601 -0.4869535 -0.6163102 -0.22282252
0003d0 71 cf 6d be 1d 4b 43 be 1e 78 78 3e 57 8c 1a 3d
       -0.23223664 -0.19071622 0.24264571 0.037731495
0003e0 d1 fc 92 bd bc 7f 44 3c da 54 bf bb ca 9a 95 3e
       -0.07177127 0.011993345 -0.0058389725 0.29219657
0003f0 99 b3 15 bf 31 33 12 bf 12 ec 89 3e 7f 89 07 be
       -0.5847717 -0.5710936 0.2693792 -0.13236044

conv2.bias f4 [64]
000000 a3 e9 07 be 76 a2 ce bd e7 ee 9c be 5a 14 cf bd
       -0.13272719 -0.10089581 -0.30651018 -0.10111304
000010 15 cf 05 be 27 f2 d8 bc 44 27 8c bd 77 fb 8f be
       -0.13067277 -0.026482655 -0.06843427 -0.2812154
000020 3c 8b ce bd 48 41 6c be c6 b2 16 be 8f ac c1 bd
       -0.100851506 -0.23071778 -0.14716634 -0.09456741
000030 5b 47 65 be a8 8a f5 bd b3 fd 47 be b8 09 be bd
       -0.22390501 -0.11989337 -0.19530372 -0.092791975
000040 dc e9 9c be 47 18 2f be 11 6c 3c be 90 17 07 bd
       -0.3064717 -0.17099105 -0.18400599 -0.032981455
000050 4d e5 bc be 48 8f 94 bb de 03 8a be d1 b8 37 be
       -0.36893693 -0.004533682 -0.26956075 -0.17941596
000060 fe c0 c2 be e8 bb b6 be 5f dd 18 be 7e 81 b8 bd
       -0.38037866 -0.35690236 -0.14928196 -0.09009074
000070 70 7c 87 be fb ad 8b be 8d 28 59 be 5c 06 19 be
       -0.26462126 -0.27281174 -0.21206875 -0.14943832
000080 18 15 7c be f7 cb 44 be e4 61 a5 bd b9 f0 04 be
       -0.24617422 -0.19218431 -0.08075312 -0.12982453
000090 e8 44 f4 bc e4 d0 c2 3c 41 c5 e1 3d 68 5a 27 be
       -0.029818013 0.023781247 0.11023951 -0.16343081
0000a0 a0 a2 45 bd 21 ba b3 be 91 58 96 be 85 05 b2 3c
       -0.048250794 -0.35102943 -0.29364446 0.021731148
0000b0 f5 b5 50 be e1 bf 27 be a0 c4 4f be cc df 65 be
       -0.20381911 -0.1638179 -0.2028985 -0.22448653
0000c0 bc d4 17 bd 11 83 8e bd ec e7 d7 bd 57 97 f7 bb
       -0.037068114 -0.06958593 -0.105422825 -0.007555883
0000d0 60 1d 78 be 28 1e 8e bd f6 48 02 bd 3e 24 97 be
       -0.24229956 -0.069393456 -0.031807862 -0.29519838
0000e0 b0 7e 1e 3d 3d 03 df bd c8 28 f6 bd 9d 64 c2 bd
       0.038695037 -0.108892895 -0.12019497 -0.09491847
0000f0 30 34 6c bd 0f 3a ad bd 1e 22 f9 3c e0 e9 68 be
       -0.057666957 -0.084583394 0.030411776 -0.22745466

fc1.weight f4 [128, 1600]
000000 40 92 0e 3b 6e 7e c1 bc fb cb 84 3c 82 bd ef bc
       0.0021754652 -0.023619857 0.016210547 -0.029265169
000010 e8 67 c4 bc a5 32 3c bc 10 31 09 bc f5 a0 18 3b
       -0.023975328 -0.011486684 -0.008373514 0.0023289297
000020 12 70 d4 bb 76 2e 89 bb 34 1a fc bb eb d4 ab 3b
       -0.0064830864 -0.004186447 -0.0076935533 0.0052438877
000030 b2 1c 87 bb 72 75 4f bc 9a c6 99 bc d5 0f 47 3b
       -0.004123294 -0.0126622785 -0.018771458 0.0030374427
000040 b0 8a b1 bc f2 1b c1 bb 53 8e 94 3b 80 0e 9a bc
       -0.021672577 -0.005893224 0.004533568 -0.018805742
000050 8b f5 62 3b 96 a1 3b 3c 00 e0 bc 3b f4 9c 0c bb
       0.0034631218 0.011452099 0.0057640076 -0.0021455856
000060 00 55 78 3a 30 d3 47 3c f3 7a 18 bc 96 c3 a0 bc
       0.0009473115 0.012196347 -0.009306657 -0.019624513
000070 6a 7a 65 bc 9c 6d 75 bb 8b e0 d8 ba b4 9d da bc
       -0.014006237 -0.0037449365 -0.0016546411 -0.026686527
000080 93 bc fc bc 19 33 12 bc 58 65 71 3c 75 40 cc bb
       -0.030851638 -0.008923315 0.014733635 -0.00623327
000090 4c b7 80 3c 97 ff ce bc fc b4 ce bc e8 c8 8f bc
       0.015712403 -0.02526836 -0.025232784 -0.017551854
0000a0 1a 99 8e 3c 97 61 f9 bb d6 11 70 3a 86 27 8d 3c
       0.017406989 -0.0076105106 0.0009157931 0.01723076
0000b0 26 11 a6 bc b4 f3 a7 bc db 5d 94 bb 66 87 49 bc
       -0.020271849 -0.020501949 -0.00452779 -0.012300348
0000c0 51 f5 76 bb ed b6 aa bc 3f d5 ac ba 92 85 91 bc
       -0.003768284 -0.020839179 -0.0013186111 -0.017763887
0000d0 75 ae a5 bb 13 1b 8e bb 41 f4 93 bc 6b 96 94 3c
       -0.0050561973 -0.0043367236 -0.018060805 0.018138131
0000e0 fa 6e a3 3c ac 3d d5 3b f7 a7 9d bc 30 c9 ba bc
       0.019950379 0.006507596 -0.019245131 -0.022801012
0000f0 19 05 40 bc 1a d2 2e ba 50 03 0c 3a cf a5 de 3c
       -0.011719965 -0.0006668881 0.000534107 0.027178673
000100 72 68 9a 3c 65 a3 d6 bc 11 9b 91 bc 4d 59 d2 39
       0.018848632 -0.02620096 -0.017774137 0.00040120856
000110 7f 4b 95 bc 91 e2 59 3c b3 45 f9 bc a4 b4 8b 3c
       -0.018224476 0.013298647 -0.030428743 0.01705391
000120 61 37 ae bc c9 ab 36 bc 2c 4d 5b 3b 98 72 fa bb
       -0.021266641 -0.011149355 0.0033462746 -0.007643055
000130 53 e9 2e 3b 6a 04 29 3c 99 a4 5a bc a2 a6 6a 3c
       0.0026689365 0.010315994 -0.013344907 0.014321955
000140 80 12 83 3a f0 5a ca bc c7 cf 81 3c 3b 21 13 3b
       0.001000002 -0.024701566 0.015846146 0.0022450227
000150 e5 6c a7 bc f8 80 94 bc d2 8a 2a bc 7c 0f 79 bc
       -0.020437667 -0.018127903 -0.010409074 -0.015201446
000160 e4 1c 65 bc c8 08 db 3c 6d 70 1d bc 89 04 b6 3c
       -0.013983939 0.026737586 -0.009609324 0.02221896
000170 7b 57 e4 3a af e0 09 bb de 98 c0 bc 52 c1 0b 3c
       0.0017421091 -0.0021038463 -0.023510393 0.008529978
000180 a6 e8 75 3b 26 43 87 bc 20 7a 72 3c c7 7b 56 bc
       0.0037522702 -0.016511511 0.014799625 -0.013091034
000190 62 96 95 3c 7f 08 c8 3b 16 b0 12 3b 3d b9 a8 bb
       0.018260185 0.0061045284 0.0022382787 -0.0051490352
0001a0 a6 ea e8 ba 33 b0 bf b9 b8 43 ca 3b 74 c4 41 bb
       -0.0017770126 -0.00036561638 0.0061726235 -0.0029566558
0001b0 7f 27 c1 3b 18 4a 76 bc 6e d1 68 bc 48 32 f9 3b
       0.005894601 -0.015032314 -0.014210088 0.007604871
0001c0 ca e4 25 3c ff 97 92 bc 29 dc 24 bc b8 05 c1 bc
       0.010125348 -0.017894743 -0.010062256 -0.023562297
0001d0 9a 45 9f bc e3 80 ac bb 98 3b 3e bc d1 62 ca 3b
       -0.019442368 -0.005264388 -0.011610888 0.0061763306
0001e0 ec 27 20 3c 4f c0 99 3c 76 0d 00 bd d4 78 8b bc
       0.009775143 0.018768458 -0.031262837 -0.017025389
0001f0 cf 25 ce bb 3a df 25 3a 88 b1 d3 bc 74 a6 96 3c
       -0.006291128 0.0006327514 -0.02584149 0.018389918
000200 46 34 c2 bc e1 72 17 bb 0b e7 bc 3b 5c ee 87 bc
       -0.023706567 -0.0023109245 0.005764847 -0.01659315
000210 22 99 08 bc 70 23 cb bb 78 87 ae bc 1a 4c 87 3c
       -0.008337291 -0.006199293 -0.02130483 0.01651578
000220 96 be ca bc c1 02 4e bb 0e 0c 99 3c 7f ff 4b bc
       -0.024749082 -0.0031434747 0.018682506 -0.012451052
000230 7e 2e 37 3c 36 99 84 3c bf 37 37 3c 02 42 7b bc
       0.011180518 0.016186338 0.0111827245 -0.015335562
000240 57 2c b4 bc 47 8a 93 bc b0 6a c7 bb 9f 08 c4 bc
       -0.0219938 -0.018010272 -0.006085716 -0.023929892
000250 4e bd 96 bc 80 cc d6 3c 10 e8 52 bc f1 76 bf bc
       -0.018400814 0.02622056 -0.012872711 -0.023372145
000260 9f 8d 77 3c ce 5b 9d 3b 15 e3 18 39 a8 ad 63 bb
       0.015109449 0.0048022037 0.00014580444 -0.0034740958
000270 50 3c 90 bb ce 7b 2d bc a9 15 be bc a8 79 b9 b7
       -0.004401721 -0.010588599 -0.023203688 -2.211037e-05
000280 16 5c 52 3c a4 5c 1a bc 88 54 f3 bc fc 44 66 bc
       0.012839338 -0.009421501 -0.029703394 -0.014054533
000290 df 02 8e bc ca 29 d9 3a fd 19 c8 3b 0c f9 a2 3c
       -0.017335353 0.001656824 0.0061066137 0.019894145
0002a0 8e 20 cb bc ec 80 75 3c 1e 7d 59 bc 51 5c 7f bb
       -0.024795797 0.014984351 -0.013274459 -0.0038964937
0002b0 d6 14 64 bc 6f 83 ad bb 5e e6 2c 3c 63 8c 2c bc
       -0.013920983 -0.005295209 0.010552971 -0.010531518
0002c0 f0 ed ef 3c 17 7f aa bc cc 81 92 bc e8 18 19 bc
       0.029288262 -0.020812554 -0.017884158 -0.009344317
0002d0 47 8f a1 bc 5b d9 08 bb 5a c8 ec bc e7 1c ed 3c
       -0.01972164 -0.0020881507 -0.028904129 0.028944446
0002e0 a2 61 df bc 4b b9 ff b8 4d 11 02 3c 39 4e 97 bc
       -0.027268235 -0.00012193861 0.007938695 -0.018469917
0002f0 cb 60 6d 3c 2c 55 d8 bb 89 ee fc 3b 39 4a 93 3b
       0.014488409 -0.00660195 0.0077188653 0.004494932
000300 8f 74 7c bc e2 83 9b 3a cd 08 dc bb 76 7b c5 bc
       -0.015408649 0.0011864866 -0.0067149163 -0.024106722
000310 8f 1d f4 3b e7 3c 2a 3c 04 ca 5d bc 6c 41 44 3c
       0.0074498127 0.010390497 -0.013536934 0.011978488
000320 e5 23 f6 3a 79 09 2b 3c dd a6 c5 3a 39 10 c0 3b
       0.0018779008 0.01043927 0.0015079636 0.005861309
000330 7a 48 f3 39 28 60 9a 3b c4 ae 67 3c 0f dc ba bc
       0.0004640257 0.0047111697 0.0141407885 -0.02281001
000340 35 b3 eb bb 8c b9 bc bb 1d e9 6a 3c f0 df be 3b
       -0.007192994 -0.0057594236 0.014337805 0.0058250353
000350 72 cf 10 bc 46 26 23 ba b5 9f a3 3c 5a 65 c1 bc
       -0.008838521 -0.000622366 0.019973615 -0.023607899
000360 d1 ba 58 bc c2 95 fa bc a6 39 ee bb 59 00 01 3c
       -0.013228134 -0.030588988 -0.007270056 0.007873618
000370 c0 18 fa bb 7f 76 d5 bb 35 d5 a2 3b d4 93 07 bd
       -0.007632345 -0.00651437 0.004969264 -0.033099964
000380 c9 2b 27 bb 84 f8 df bc d1 ee ca bc 31 b5 89 3b
       -0.0025508276 -0.027340181 -0.02477208 0.004202508
000390 fa 17 ee bb 41 0d 2d bc 40 3e 9c bc b9 7d 3b bc
       -0.007266042 -0.010562242 -0.019072652 -0.011443549
0003a0 65 24 14 3b 6d 47 99 3c 00 3d 0e bc e7 11 dd 3b
       0.00226047 0.018710816 -0.008681536 0.006746519
0003b0 b5 ec 27 bb 69 37 d6 bc 9b 4f 94 39 1b 7a 73 bb
       -0.0025623266 -0.026149468 0.0002828807 -0.0037151638
0003c0 a2 f6 ae bb 19 3c 16 3c 91 f7 d8 bc 08 93 c9 ba
       -0.0053394595 0.009169602 -0.026485236 -0.0015378902
0003d0 c3 81 92 bb 95 62 21 36 b4 e7 fe bc 80 d9 c1 bc
       -0.004471035 2.4048252e-06 -0.031116344 -0.023663282
0003e0 ce ae 13 bc 8d fa 50 bc b3 5e 2e bc ba 19 4f 3c
       -0.009013845 -0.012755048 -0.010642695 0.012640411
0003f0 cb 33 12 3c b4 6f f6 bb 4c e7 2a bc 81 bc 11 bb
       0.008923481 -0.0075206403 -0.010431122 -0.0022237601

fc1.bias f4 [128]
000000 f2 4c 03 3c 64 4a 17 be bf 13 46 bd 05 fd 32 be
       0.008013951 -0.14774472 -0.048358675 -0.17479332
000010 ad fc bc bd 00 1b 89 bd 94 ac 9a 3a df 25 12 bd
       -0.092278816 -0.06694603 0.00118007 -0.035680648
000020 f1 0e 67 bd 82 0b 14 3e 30 47 51 bc f5 7b da bd
       -0.056410734 0.14457515 -0.01277332 -0.10668174
000030 66 a9 aa bd 19 23 66 be ec 6e 57 bc 1d 8d 53 bc
       -0.083330914 -0.22474326 -0.013149004 -0.012912062
000040 d0 4e 29 bd be bf 3a 3b b4 6a 66 3d 98 4a 09 bd
       -0.041334927 0.0028495635 0.056254104 -0.033518404
000050 02 75 88 be ad 03 77 bc 16 b6 e8 bc 9b 81 13 bd
       -0.2665177 -0.01507656 -0.028407138 -0.036012273
000060 c3 e7 e4 bc 2d 05 23 be 1e e8 6c be 50 bb ce 3d
       -0.027942544 -0.15919943 -0.2313542 0.10094321
000070 87 55 3c be 52 0a 1d 3e ad 19 65 3c b2 81 fc bd
       -0.18392001 0.15335968 0.013983172 -0.12329425
000080 1e 96 d0 3d f5 ca 50 be 80 c1 5f bc 80 81 c9 bc
       0.101848826 -0.20389922 -0.013656974 -0.024597883
000090 75 6a 86 3d cd a6 28 bd 56 76 4a be 70 23 57 bc
       0.06563274 -0.0411747 -0.19771704 -0.013131008
0000a0 03 4a e8 bd c0 88 8e bc 3d b0 56 bc 2b dc 4a be
       -0.113422416 -0.017399192 -0.013103542 -0.1981055
0000b0 47 46 76 bd e6 17 0f bb 7f ee 8a 3b fa 14 8f 3d
       -0.060125615 -0.0021834313 0.0042398567 0.06986423
0000c0 28 07 07 bc 97 05 43 be a1 80 25 be 02 76 cf bc
       -0.008241452 -0.19045101 -0.1616235 -0.025324825
0000d0 b4 06 b8 3c bf 1e e5 3a 0c 03 db 3b 6b 05 6d bc
       0.022464134 0.0017480477 0.006683713 -0.014466624
0000e0 66 d9 19 be 93 53 0c bd 9d 04 a7 bc bf e3 da bc
       -0.15024337 -0.03425939 -0.020387942 -0.026719926
0000f0 09 af 27 3d 4d dd 17 be 7e 85 d8 bc 31 94 1d bd
       0.04093841 -0.14830513 -0.026430842 -0.038471404
000100 f6 23 99 bd fc 81 de bc 62 80 a0 bb 51 c7 5c be
       -0.07477562 -0.02716159 -0.004898117 -0.21560408
000110 58 ad 15 be 3c 66 28 bd ff 79 89 bc be fd 36 bc
       -0.14616907 -0.041113123 -0.016781805 -0.011168895
000120 08 a6 2c be f7 00 2d bd fc ed eb bd 20 9f 15 bd
       -0.16860211 -0.04223725 -0.11520001 -0.036528707
000130 46 14 e7 39 eb a9 1b 3d 25 bd 91 bd 42 88 12 be
       0.00044074858 0.038003843 -0.071161546 -0.1430979
000140 c5 82 15 be 75 80 15 bd 6d e5 9e 3c a6 a7 a3 bd
       -0.14600666 -0.03649946 0.019396508 -0.07990961
000150 f4 9b be bc f6 50 3f bc f2 2c 69 be d5 68 49 be
       -0.023267724 -0.011677017 -0.22771052 -0.19668896
000160 c1 e7 75 bd a3 4c 21 3d 70 2f 48 be 8b 0e d9 bd
       -0.06003547 0.039379727 -0.19549346 -0.10598477
000170 88 d3 af bc 73 3f 45 3c 82 78 72 bc ed dc c1 3d
       -0.02146317 0.012039053 -0.014799239 0.094659664
000180 ef 1d af 3c 83 a6 0d 3e bb c0 35 bc 9a 4a f5 bd
       0.021376578 0.1383305 -0.011093314 -0.1197712
000190 3e b1 d2 bc cb 0a 21 ba e1 7a 21 3d d1 98 72 be
       -0.025719281 -0.0006143271 0.039423827 -0.23691107
0001a0 70 33 37 be 70 6f 57 bc 9d a4 96 ba de 24 f5 bc
       -0.17890716 -0.013149127 -0.001149315 -0.029924806
0001b0 3a 93 1e bd fb 6f 05 be de 83 fa bb f2 f3 06 be
       -0.038714625 -0.13030998 -0.0076451143 -0.13178995
0001c0 ae 86 92 bd a2 0a c2 bc d3 75 6d bc f7 54 c5 bc
       -0.07154594 -0.02368671 -0.0144934235 -0.024088366
0001d0 6c f0 24 be f4 64 9e bb b3 d4 b4 bd 8f b8 85 bc
       -0.16107339 -0.004833812 -0.08829632 -0.016323356
0001e0 3b f5 c9 bd 7c 3e d6 3d 50 5a d3 bd ee 47 1f be
       -0.09861227 0.10461137 -0.1031996 -0.15554783
0001f0 20 e6 02 bd 65 05 7c bc 05 93 80 be 92 fa 57 be
       -0.031957746 -0.0153821455 -0.25112167 -0.21091679

fc2.weight f4 [10, 128]
000000 7f 09 89 bb 3f 86 8a 3e 73 91 95 3e 93 19 39 be
       -0.00418204 0.27055547 0.2921253 -0.18076162
000010 fa 0a b2 be e6 17 a3 3d f3 75 9a bd 04 d8 00 bd
       -0.34774 0.07963543 -0.07542028 -0.03145601
000020 28 06 a5 be 63 d2 3e be ee 16 93 bd b0 48 5e be
       -0.3223126 -0.18634944 -0.07182108 -0.21707416
000030 46 c7 98 3d 1e c6 50 be 6a e9 f3 bc e3 4c b4 bd
       0.074598834 -0.20388076 -0.029774386 -0.088037275
000040 d9 76 64 3e c0 9f 0b 3c 6d 67 12 3e dc 10 16 bd
       0.22310962 0.008521974 0.14297266 -0.036637172
000050 91 af 80 be ef 06 1b bd 30 93 aa bd 34 21 06 3e
       -0.25133947 -0.03784841 -0.08328855 0.13098603
000060 9a 20 da bc e7 8d de be d7 f0 27 3e 45 a3 c2 be
       -0.026626874 -0.43467638 0.16400467 -0.3801519
000070 cf 62 75 be cc b7 81 be 1f a3 4f bd ee 67 0b be
       -0.23963474 -0.25335538 -0.050692674 -0.13613865
000080 39 32 06 3e b5 20 ec be 99 a1 ac bd 25 59 b9 bd
       0.13105096 -0.46118703 -0.0842926 -0.09050206
000090 47 1f fb be e1 71 65 3d 79 8a 27 be a7 60 3b bd
       -0.490473 0.056016807 -0.16361417 -0.04574647
0000a0 a8 a2 a6 3e dc 7c 4f bd ba 88 a0 bc 80 f6 32 bf
       0.32545972 -0.050656185 -0.019596446 -0.6990738
0000b0 33 57 cd bb f8 a9 09 bf a2 51 88 bd dc 41 6a 3e
       -0.0062664985 -0.53774977 -0.06656195 0.22876686
0000c0 b1 21 81 bd 66 d4 61 be 07 9a ff be 9f 67 8f 3d
       -0.06305254 -0.2205368 -0.499222 0.07002186
0000d0 12 18 e8 3c 13 84 82 bd 88 f9 68 3d 2f 47 ad bd
       0.02833179 -0.063728474 0.056878597 -0.08460843
0000e0 69 a9 35 be 4e e4 fb bc bb 04 cd 3b b6 0c db 3b
       -0.17740406 -0.030748513 0.0062566674 0.006684865
0000f0 21 92 d7 be 67 02 04 bf a2 34 bf bd 53 d8 30 bd
       -0.42103675 -0.51566166 -0.09336211 -0.043175053
000100 5f 7b 24 3e b1 f7 49 bd 4c bd f9 3b 99 fd ec 3d
       0.16062687 -0.049308483 0.007621443 0.115718074
000110 82 70 49 be 08 18 fb 3c ea ce 00 3c 83 56 22 3e
       -0.19671825 0.030651107 0.007861832 0.15853314
000120 44 f8 11 be 3b ab f5 bb 10 d7 34 be 7d 99 07 3e
       -0.14254862 -0.007497219 -0.17660165 0.13242145
000130 94 7d c3 3a e0 12 ca 3d 27 3e 90 3e 11 b3 e8 3d
       0.0014914745 0.09866881 0.28172418 0.11362279
000140 80 bd 0b bf 9f 8d 9f 3d f1 7f b5 be 3f ed 31 bf
       -0.5458603 0.07790684 -0.35449174 -0.69502634
000150 78 33 7d ba 9e 58 a1 3c 1d 99 90 bd 68 7b e7 bd
       -0.00096588535 0.019695576 -0.07060454 -0.11302835
000160 37 93 91 be 5d cb 78 3d 6d 03 1b bf 7b 4a 67 be
       -0.2843263 0.060740817 -0.605521 -0.22587006
000170 b1 6e d4 bb 77 fd 88 3e 92 4d 63 bc e4 1e c8 3d
       -0.006482922 0.26755878 -0.013873475 0.09771517
000180 21 3f 73 bc 15 0c 6a 3e 45 ca a9 bd 8b 7b 91 be
       -0.014846594 0.22856171 -0.08290533 -0.28414568
000190 1b 40 db bc bc ce b4 be 6e 38 ba bc fc 48 05 bf
       -0.026763966 -0.35313976 -0.022731986 -0.5206449
0001a0 cb a2 35 be f3 4f a3 3c 5f e6 9d 3d a7 71 25 bd
       -0.17737882 0.019935584 0.077099554 -0.04039159
0001b0 7c 7d a8 3c 40 b3 26 be d0 74 08 bf c4 d4 86 bc
       0.020567648 -0.16279316 -0.5330324 -0.016458876
0001c0 fc 60 eb bd 56 37 11 bd be 0e 2b 3d 74 d0 b7 bc
       -0.11493108 -0.035453163 0.041762106 -0.022438265
0001d0 01 cc b9 bd 0c 7a ba 3e 40 48 50 3e 03 69 cf 3d
       -0.09072114 0.3642124 0.20340061 0.10127451
0001e0 a9 f7 f5 be 8d 78 ec be b6 ae b0 3c a0 79 1b be
       -0.48040512 -0.46185723 0.021567684 -0.15183115
0001f0 30 b1 ee be 00 34 00 bd 45 6a be bd f3 f6 1d be
       -0.46619558 -0.03129959 -0.09297613 -0.15426235
000200 e4 10 a0 bc 8b 46 b8 be 0d 1b 5d 3d 9b 77 a0 3d
       -0.019539304 -0.3599132 0.053980876 0.07835313
000210 19 fb 15 3f c6 d8 e5 3d 29 2f d8 3b a7 c1 93 bd
       0.5858627 0.11222987 0.006597419 -0.07214671
000220 c6 a2 97 be fb 70 2a 3e 14 7a 93 bd df 8e b0 3d
       -0.29616374 0.16644661 -0.07201019 0.086210005
000230 f8 8a aa 3c cc 8e e4 3c 18 bf 3a be 62 02 9a 3d
       0.020818219 0.027900122 -0.18236959 0.07519986
000240 de b2 e3 be 71 df c2 bb 5d 60 f7 3e 5c 58 50 bd
       -0.44472402 -0.0059470464 0.48315707 -0.050865516
000250 23 16 c9 be 3e 33 96 bc 0d b7 9b 3c 32 74 3b be
       -0.392747 -0.018334981 0.019008184 -0.18306044
000260 01 ac 70 bc 2b ca 36 3e 1e fa 19 bf 85 4d 73 3d
       -0.014689446 0.17850558 -0.60147274 0.0594001
000270 c6 4f e6 be da 7f c2 3d 8b 89 99 bc 54 f9 fb 3d
       -0.44982737 0.09497042 -0.018742343 0.12303415
000280 b5 ec b2 3d 4d d8 30 bf 21 ba dd 3c e3 fc 4e bc
       0.087365545 -0.6908005 0.027066292 -0.012633535
000290 1d 6e bc 3d c2 e6 dd 3c 33 66 a4 be 91 1b 71 bd
       0.0920069 0.027087573 -0.32109222 -0.05886418
0002a0 d2 50 2f be 05 09 91 3d ee 20 4a 3d 27 82 51 be
       -0.17120674 0.070817985 0.04934781 -0.20459805
0002b0 af 7b e1 be bd 18 0c 3e af 73 d2 3b 5d 5a 91 3d
       -0.44039676 0.13681312 0.006422482 0.070973136
0002c0 56 a3 fa bc 64 a2 b6 bd 38 0c 8f 3e ea 20 cd 3c
       -0.030595463 -0.08917692 0.2793901 0.025040109
0002d0 b7 4e 16 3e d5 88 41 3c 82 87 4c 3d bf 0a ab 3c
       0.14678465 0.011812408 0.049933918 0.020879148
0002e0 a7 61 31 be 39 14 17 bd 75 35 55 bd 5c 29 4a 3c
       -0.17322408 -0.03688452 -0.052052934 0.012338962
0002f0 07 d3 16 3e 17 10 8f bd 55 f4 30 bd 47 56 6d 3d
       0.14728938 -0.06985491 -0.043201763 0.05794361
000300 f5 f4 90 bc 07 29 7e 3c e6 55 2e 3d 47 2e f7 be
       -0.01769493 0.015512711 0.042562388 -0.48277494
000310 df 54 ce 3d c8 81 62 3d 08 d5 82 bd ec 90 cb be
       0.100747816 0.05529955 -0.06388289 -0.39759004
000320 b4 f1 35 be 42 cc 45 3d 68 3f 3a be 96 fe 48 3e
       -0.17767984 0.0482905 -0.1818825 0.19628367
000330 98 8a 8a bb 31 c4 47 3e 71 98 13 bf bc 55 04 bf
       -0.0042279474 0.19508435 -0.5765448 -0.5169332
000340 e0 7a fe 3d 58 ce ae 3d c6 ff 39 3e a8 b3 42 be
       0.1242578 0.08535451 0.18163976 -0.19013846
000350 1e 9b 55 3d cf a0 08 bd 06 09 17 be 89 c5 5e be
       0.052149884 -0.033356484 -0.14749536 -0.21755041
000360 d4 d0 a5 3b 56 3c a0 3e 10 5b 00 be 3d 51 23 3e
       0.0050602946 0.31296033 -0.12534738 0.15948959
000370 50 80 6a bd 15 58 b4 be 50 24 1b bb 77 6d 85 3e
       -0.057251275 -0.3522345 -0.0023672767 0.26060078
000380 48 72 41 3e 3d c7 23 3e 4e 22 9e be d1 af 2a bf
       0.18891251 0.15993972 -0.30885547 -0.66674525
000390 f8 f3 29 bd 81 0b 9e be 91 a6 5a 3e 1f 9f 49 bf
       -0.041492432 -0.30868152 0.21352603 -0.78758425
0003a0 ba 61 f9 bd 37 0f 2f bd 89 44 5b bc 03 a6 6d bd
       -0.12176843 -0.04273912 -0.013383039 -0.05801965
0003b0 f1 d2 24 3d 39 18 be bd 64 5c f6 3d 55 79 7b 3d
       0.040240232 -0.09281964 0.12029341 0.061395008
0003c0 55 a9 12 3d f4 a8 d1 3b 02 72 b0 3c 76 da cb 3d
       0.03580602 0.0063983146 0.021538738 0.099537775
0003d0 94 de d8 be 54 50 46 3c eb cc ec be 24 ec f4 3d
       -0.42357314 0.012104113 -0.4625009 0.11959103
0003e0 f1 76 a1 be e9 fb 38 3e 8a 7f 90 3d 65 ab e8 be
       -0.31536058 0.18064846 0.07055576 -0.45443264
0003f0 5b a3 1a be fa 6f f0 3c a4 75 6e be 15 4b a5 bd
       -0.15101378 0.02935027 -0.23287064 -0.080709614

fc2.bias f4 [10]
000000 b7 a3 54 bd c4 bc bd 3d 0e 28 08 bd 65 0c 8f bd
       -0.051913943 0.0926452 -0.033241324 -0.06984786
000010 a8 2c 96 3d 3c c7 fd bd 4c a6 af bd d4 5b 0b be
       0.07332736 -0.123915166 -0.085766405 -0.13609248
000020 db eb 6a 3e b3 7f 3e be
       0.22941534 -0.18603401
